application/model/data.pth (torch, 6807 bytes, 6 tensors)

l1.weight f4 [8, 83]
00000000: 19c6 ef3d 6fa0 a83e ef97 2f3f dcf8 bfbe
00000010: 0b10 48bf 2577 883e b346 453e ed02 473e
00000020: 0275 823e 8a83 8f3e 6af6 e63e a41b 1b3f
00000030: 7230 543e 0ca1 ed3d 75c9 b43d e853 c4be
00000040: 24b6 60bf 544f aa3e 6e88 0cbe 0bb9 db3e
00000050: 921e c8bd f46c c9bd 6920 303e 3c7a 173e
00000060: bd56 6f3d 5f38 003f d0bd 473e 5418 56bf
00000070: b6fa e7be 47f6 1bbf bb25 ec3e 4a17 513f
00000080: 7708 3c3d f65c c8be 662b e3bd ad02 ff3e
00000090: f666 7abe d349 863d c1d7 b23e 009c 443e
000000a0: f285 e93e 2100 6c3f 17ea 9abe 5ea3 143f
000000b0: 0140 d13e e71b b3bd 5604 213f 9603 c4bd
000000c0: ea17 503f e0bf 0a3f aede 5d3f 0d9f 7e3e
000000d0: 059b 493e aa87 ec3d 2bea 993e 2ecb 903e
000000e0: 3a59 2f3f 28fe 603e 8671 8e3e 7b5f 4abe
000000f0: 1100 c6be 5de2 383f 8272 ef3e e496 03be
00000100: 9ff5 303e e579 363f 4581 493f 73d6 f23e
00000110: 4f9a b43e 2f40 183e e552 4abe 5d85 883e
00000120: 2547 dcbd e25a 7ebd 31d3 923e 66bb 31bd
00000130: 6f4f 0f3f 46b6 833e 709b 19bf 0386 23bf
00000140: 4b4e 51be 36c2 c3be eca6 7f3e 94b6 c43e
00000150: e166 8b3e 30fa d6be daf3 013f 6317 493f
00000160: 0583 053f 4c32 6dbe d9e7 4abf 2b24 c4be
00000170: 87d5 e33d aa45 1d3f 6c27 0fbf 0c29 d1be
00000180: bbef 37bf 149f 9a3e 0666 43be b6d1 3fbc
00000190: c9e1 073f 927a 373f 9f4b 173f 4c0d 8e3d
000001a0: e37d d83e 67c3 a33e a322 5b3e 253f e4bc
000001b0: 8bee 473f 6bfb 37bf 41fb 853f 8e91 263f
000001c0: b19c 723f 6ce8 da3e ee8d abbe 2cec ad3e
000001d0: 14ab edbe 9a47 d53e d1ae b4be dea7 1d3f
000001e0: 43da 063f 0b8f 833e bf90 b7be c3e6 8abe
000001f0: 06b4 5c3f 9452 133f a71b 4c3f b584 39bd
00000200: a5b4 a6bd 8211 7bbe 1d8a 1e3f 7967 a83f
00000210: 06da 433f f966 ecbe 8172 6dbe 2f21 ed3e
00000220: 5f4d 133f 8a1e c63e d6f6 f73e 3119 f2be
00000230: 924e a83e c6cb 9cbe 53b7 2b3f be77 133f
00000240: 99a4 c7be 0d03 0c3f 1350 debd 4391 9c3f
00000250: df86 03bf 464c cfbe 33af 633f 4d78 9bbe
00000260: 9b14 b53e e886 1d3e 395f b8be 55e1 973d
00000270: 9d79 92ba d084 61be 951a 373e 0ba3 c3bd
00000280: 9a7a 38bf 3dcf 6c3f 658b 473f 594c eb3e
00000290: 9073 6a3f bc95 673e a3be b3bd b0b8 4b3e
000002a0: 11ad 34bf 6698 043f 33b0 243d 5cd3 ddbc
000002b0: 83ec 133f ed9a 813f 7b3a 543f 528f d23e
000002c0: 7bc3 a73e 2436 38bf 871f 373f 4c49 423f
000002d0: c5a0 1d3e 61e4 573f 39cb 583f b709 59be
000002e0: 566b 09bf 069d 1ebf 88b8 013e 6f23 fbbc
000002f0: e2b5 1bbe f17e e2bd 72a3 c33e ed96 543e
00000300: 8264 693f edba 2ebe 0a4f 47bf d7ce 93be
00000310: 6d41 8fbe 0ce7 79be bad3 e63e 1a2b 2b3e
00000320: d182 c23e 1e58 323f ed8a 9dbe c599 05bd
00000330: c9d6 c13e c844 373f 6307 1cbe 3442 2fbf
00000340: d3e6 b7be 8d34 a63e 586b c43e 4247 a63e
00000350: e024 00be 9510 64be 206f b83e 5be6 073f
00000360: 9820 dbbe 073e 023f 5bdb e8bd 89de 74be
00000370: 9768 a3be 1ab3 cdbe 06c4 c6be a11b 8c3e
00000380: 70bd e33d e692 0bbf 55a1 e7be cafd 31bf
00000390: 9c29 403e 3738 7d3e 737c e93b b572 30bf
000003a0: 7139 27bf 3b26 91be df9c 683e 4abb 52bd
000003b0: 22e8 373f f419 263f f5a0 553f 2d8e 553e
000003c0: 1468 a63e 2554 4b3e ce88 67bf e8c2 ae3f
000003d0: 7e87 8fbe 3a6f 30bf b5c4 95bd 0e46 fb3d
000003e0: 72a0 633e 98c9 573e e53f 27be 0533 453f
000003f0: 2373 043f 394e 60bf aaea 68bd 6faf 733e
0.11707706 0.329349 0.6859121 -0.37494552 -0.7814948 0.266534 0.19265251 0.1943471
0.25479895 0.28030044 0.45109874 0.6058905 0.20721605 0.11602983 0.088274874 -0.38345265
-0.87777925 0.33263648 -0.13723919 0.42914614 -0.09771456 -0.09835234 0.17199863 0.14792722
0.05843233 0.50086015 0.19506001 -0.8363087 -0.45308465 -0.60922664 0.46122536 0.8167616
0.04590651 -0.39133424 -0.11092262 0.4980673 -0.24453339 0.065570496 0.34930232 0.19200134
0.45610005 0.92187697 -0.3025672 0.5806178 0.40869144 -0.08745556 0.6289724 -0.095709965
0.8128649 0.5419903 0.8666791 0.2486536 0.19688042 0.11549313 0.30061468 0.28280014
0.68495524 0.21971953 0.27820987 -0.19762985 -0.38671926 0.722204 0.4676705 -0.12850529
0.17281197 0.71279746 0.78712875 0.47429237 0.35273978 0.14868234 -0.19758184 0.26664248
-0.10755757 -0.06209839 0.2867675 -0.043391608 0.5598058 0.25725 -0.60002804 -0.6387636
-0.20440023 -0.3823411 0.2496602 0.38420546 0.27226928 -0.41987753 0.5076271 0.7855131
0.52153045 -0.23163718 -0.7926002 -0.38308844 0.111247115 0.61434424 -0.5591953 -0.4085163
-0.71850175 0.30199492 -0.19081888 -0.011707714 0.53078896 0.716714 0.59099764 0.0693613
0.42283544 0.31985018 0.21399932 -0.02786214 0.7809836 -0.7186801 1.0467302 0.6506585
0.9477034 0.4275545 -0.3350672 0.33969247 -0.46419585 0.4165619 -0.35289624 0.6158427
0.5267679 0.2569507 -0.3585262 -0.27129182 0.86212194 0.5754788 0.79729694 -0.045292575
-0.08139924 -0.24518397 0.61929494 1.3156577 0.7650455 -0.46172312 -0.23188211 0.4631438
0.57539934 0.38695174 0.48430508 -0.47284845 0.32872444 -0.30624217 0.67076606 0.5760459
-0.38992766 0.54692155 -0.10855117 1.223183 -0.5137767 -0.4048788 0.8893921 -0.3036522
0.35367283 0.15383494 -0.3601015 0.074160255 -0.001117516 -0.2202332 0.17881234 -0.09552582
-0.72062075 0.9250372 0.77947074 0.45956686 0.91582584 0.22615713 -0.087765954 0.19894671
-0.7057658 0.5179504 0.0402071 -0.027078323 0.57782763 1.0125405 0.82901734 0.4112497
0.32766327 -0.7195761 0.7153248 0.7589309 0.1539336 0.84332854 0.84685093 -0.21195112
-0.53679407 -0.6195835 0.1266805 -0.030656544 -0.15206102 -0.110593684 0.38210636 0.20760699
0.9116899 -0.17063494 -0.7785498 -0.28868744 -0.27979603 -0.24404544 0.4508341 0.1671566
0.3799043 0.69665706 -0.30770054 -0.03261735 0.3785918 0.71589327 -0.15237193 -0.6846039
-0.35918292 0.32461968 0.38363147 0.3247624 -0.12514067 -0.2227195 0.36022282 0.5308587
-0.42798305 0.50875896 -0.11369964 -0.23913015 -0.31915733 -0.40175706 -0.3882143 0.2736483
0.11120117 -0.54521024 -0.45240274 -0.69527876 0.18765873 0.24728476 0.007125431 -0.6892503
-0.65322024 -0.2834948 0.22716092 -0.051448144 0.7183858 0.6488335 0.83448726 0.20855017
0.3250128 0.19856317 -0.9044312 1.3653231 -0.2803306 -0.6891972 -0.073129095 0.12269221
0.22229174 0.21072996 -0.16332968 0.77030975 0.51738185 -0.8761936 -0.056864418 0.23797391

l1.bias f4 [8]
00000000: 7f74 7e3f 190b 373f 9274 673f e5aa 5f3f
00000010: 1afb 443f 4fa1 503f 1007 443f d2f4 f63e
0.9939651 0.7150131 0.9041225 0.8737014 0.7694565 0.8149614 0.76573277 0.48233658

l2.weight f4 [8, 8]
00000000: ab86 e3bd 24af 2c3f f4c8 b23f 0e72 bdbe
00000010: e77f f23f 5c22 21be 3eea 44bf b9cb 253e
00000020: d858 2b3f 5d43 73bf 7770 953f 9c73 9d3f
00000030: 4e96 0dbf c882 1c3f 3d62 7c3e 4c6c e5be
00000040: 3cc5 933e af1d 0d3f 2f5a c53f 3dbc d3bf
00000050: 556a 0a3f fdc8 ad3f f912 963f 4fad 2ebf
00000060: 3c17 e93f 6716 1b3e 6e76 b53d 4c58 55be
00000070: 2e8b 563f df96 273f 7120 0cbf 0c61 7bbf
00000080: 82a0 da3f ac62 313f 7c55 5fbf b12e 163f
00000090: 8e06 c43e 35b0 d73f ed81 7abf 73cc 21bf
000000a0: 0861 7abf 7305 c73f 52fc 423f ae01 993f
000000b0: 9871 a83f c4f1 9fbf 9f9f 323f f6e4 c93f
000000c0: aa4b 8d3f 5c33 84be 95ef d43f 32af 653f
000000d0: 2a93 9ebf f856 713e 746b 0140 3005 533f
000000e0: 5eae ee3e 2fc9 e53f 9b91 02bf 3568 a13f
000000f0: 7e38 82bf 6f1d 8b3f d47d 7b3f e11c c03f
-0.1110967 0.67454743 1.3967576 -0.3700108 1.8945283 -0.15735763 -0.76919925 0.16190995
0.6693244 -0.95024663 1.1674947 1.2300906 -0.5530747 0.61137056 0.2464685 -0.44809186
0.28861415 0.5512342 1.5418147 -1.6541821 0.540685 1.3576962 1.172454 -0.682332
1.8210216 0.15145265 0.08860479 -0.20834464 0.8380612 0.65464586 -0.54737 -0.98194957
1.7080233 0.69291186 -0.87239814 0.58664995 0.3828625 1.6850649 -0.978545 -0.6320259
-0.9780431 1.5548538 0.7616626 1.1953638 1.3159666 -1.2495656 0.6977481 1.5772998
1.1038716 -0.25820434 1.6635615 0.8972045 -1.2388661 0.23568332 2.0221834 0.8242979
0.46617407 1.7952021 -0.51003426 1.2609926 -1.017349 1.0868357 0.98238873 1.5008813

l2.bias f4 [8]
00000000: b88f f83e 004c d73e db0c d63e 1fe0 253f
00000010: b4a1 e83e c95d 0f3f f76f ca3e 1c3e a8bc
0.4854715 0.4205017 0.41806683 0.64795107 0.4543587 0.5600248 0.39538547 -0.020537429

l3.weight f4 [14, 8]
00000000: 9ac7 b83c 8c0d 29bf a4a4 6b3e 0ecf 4c3f
00000010: 18b8 4b3f 6dcd 1cc0 c263 e3be 06d9 37bf
00000020: 743f ed3c d653 013f a5fd ef3e c112 bc3e
00000030: 514e a6bf 4e9c 39be 4c34 fe3d d252 dabf
00000040: 7c08 dabe 5f9e 9fbf 047f 163f 2953 093e
00000050: 7c44 073d 6e85 9abf b6a3 5b3e 30b2 833e
00000060: dcb3 0bc0 f8a5 123f 43cd 4bbf a2c1 e43e
00000070: 7d89 443f 0d78 10c0 5f26 d63d 3eb6 a93e
00000080: 8ea5 583f e70c fabf 2e0c a83e 0d09 3a3f
00000090: e670 20be b60d 3ebd 08f7 04c0 36dc d5bf
000000a0: 3cda ce3e 9f2d 38c0 9390 c7be 9294 f7be
000000b0: bb2c 38bf c0e1 3b3f eca2 d3bf 2865 be3d
000000c0: 894c 08be a045 95bf b381 f6bf 0f11 c2bf
000000d0: 518c b6bf 2498 383f bdee 983e 6afa 973e
000000e0: 2a60 09c0 d068 57bf fb03 13bf 3ee3 6ebd
000000f0: 85aa 833e 6153 90be cc6b 473e cfc1 383f
00000100: 3218 c7bf 7c50 253f 0e8f 18bf e6f4 efbf
00000110: 649b bbbf e6f6 423e d1f0 3c3f d3c7 7f3e
00000120: 0b86 14bf d57c 0cc0 1b59 203f 0d58 62bf
00000130: 46e9 0fc0 7a17 153e 2b02 5a3e b43b cf3e
00000140: 750a 65bf 1899 403f 4731 d33e 461a ccbe
00000150: 3c43 11bf 4ab5 08c0 8f03 363f e4cd 6dbd
00000160: 796f 773e 9d66 08bf c878 c03d 1ddd b63d
00000170: 01bc debe 0e1c 593e 919e 12be 7805 39bf
00000180: 9e6a febd 6bcf 6a3e b206 b0bf 459b d73e
00000190: bb15 183f b904 aabe adad 7fbf 6a3e 89bd
000001a0: aa2c 6e3e 30ef 0ec0 e766 d73e 1561 8fbe
000001b0: 6d75 203f bba6 1bbf d5e2 e6bf 0abf bf3e
0.022556115 -0.66036296 0.23012024 0.8000344 0.7957778 -2.4500382 -0.44412047 -0.71815526
0.02896092 0.5051855 0.46873203 0.36733058 -1.299265 -0.18126032 0.124123186 -1.7056525
-0.42584598 -1.2470206 0.5878756 0.1341063 0.033024296 -1.207197 0.2144917 0.25721884
-2.1828527 0.572845 -0.7961008 0.4467898 0.7677229 -2.2573273 0.104565375 0.33146852
0.84627616 -1.9535187 0.32821792 0.7267006 -0.15668067 -0.046399795 -2.0775776 -1.6707828
0.40400875 -2.8777845 -0.3897749 -0.48355538 -0.71943253 0.7339134 -1.6534095 0.09296638
-0.13310446 -1.1661873 -1.9258331 -1.5161456 -1.4261571 0.7210715 0.29869643 0.29683238
-2.1464944 -0.84144306 -0.5742795 -0.058322184 0.25716034 -0.28188613 0.19474715 0.7217073
-1.5554259 0.64575934 -0.59593284 -1.8746612 -1.4656796 0.19039497 0.73804957 0.2497857
-0.58017033 -2.1951191 0.62635964 -0.88415605 -2.2486129 0.14559737 0.2128989 0.40475237
-0.8946908 0.752336 0.41248533 -0.39863795 -0.56743217 -2.136065 0.7109918 -0.05805768
0.24163617 -0.53281575 0.09398037 0.08928893 -0.4350281 0.21202108 -0.14318301 -0.7227397
-0.12422679 0.22930686 -1.3752043 0.4211065 0.5940816 -0.33206728 -0.99874383 -0.06701358
0.23259225 -2.2333488 0.42070696 -0.28003755 0.6267918 -0.60801286 -1.8037974 0.3745044

l3.bias f4 [14]
00000000: 81c5 143e 1637 05be d243 1fbf 4d7a 023e
00000010: 73da cd3d e0f1 2fbc 58bd c0bd 29ad 7d3d
00000020: cdf9 91bc bd4f b33d e2c1 bcbd 6d7f 133f
00000030: a01e 8e3e bb74 a0be
0.14528467 -0.13009295 -0.6221286 0.12741967 0.100514315 -0.01073882 -0.094111145 0.061932717
-0.01781931 0.08755443 -0.09216668 0.5761631 0.2775774 -0.31339058
